…
eta_1^t}\n$$\n\n$$\n\\hat{v}_t = \\dfrac{v_t}{1 - \\beta_2^t}\n$$\n\n### Step 5 — Parameter Update\n$$\n\\theta_{t+1} = \\theta_t - \\eta \\cdot \\dfrac{\\hat{m}_t}{\\sqrt{\\hat{v}_t} + \\epsilon}\n$$\n\n**TensorFlow defaults**: $\\beta_1 = 0.9$, $\\beta_2 = 0.999$, $\\epsilon = 1 \\times 10^{-7}$.\n\n## 3.4 Analytical Matrix: Layer-by-Layer Tensor Shape Walkthrough\n\nFor a standard KTU-tutorial CNN on 224×224 RGB medical images (binary classification):\n\n| Layer (Type) | Output Shape | Param # | Activation | Notes |\n|--------------|--------------|---------|------------|-------|\n| Input | (None, 224, 224, 3) | 0 | — | RGB image |\n| Conv2D(32, 3×3, same) | (None, 224, 224, 32) | 896 | ReLU | $3 \\cdot 3 \\cdot 3 \\cdot 32 + 32$ |\n| MaxPool2D(2×2) | (None, 112, 112, 32) | 0 | — | Halves spatial dims |\n| Conv2D(64, 3×3, same) | (None, 112, 112, 64) | 18,496 | ReLU | $3 \\cdot 3 \\cdot 32 \\cdot 64 + 64$ |\n| MaxPool2D(2×2) | (None, 56, 56, 64) | 0 | — | |\n| Conv2D(128, 3×3, same) | (None, 56, 56, 128) | 73,856 | ReLU | |\n| MaxPool2D(2×2) | (None, 28, 28, 128) | 0 | — | |\n| Flatten | (None, 100352) | 0 | — | $28 \\cdot 28 \\cdot 128$ |\n| Dense(128) | (None, 128) | 12,845,184 | ReLU | Heaviest param layer |\n| Dropout(0.5) | (None, 128) | 0 | — | Regularization |\n| Dense(1) | (None, 1) | 129 | Sigmoid | Binary output |\n\n> [!NOTE]\n> **Observation**: The `Flatten → Dense(128)` transition accounts for >99% of total parameters. This is the classical motivation for **Global Average Pooling (GAP)** in modern architectures like ResNet, MobileNet, and EfficientNet.\n\n## 3.5 Complete TensorFlow Code Walkthrough (Image Classification)\n\nThe following annotated TensorFlow 2.x code implemen
…
