…
ape(X_test.shape[0], X_test.shape[1], 1)\n```\n\n## 3.5 Phase 4: LSTM Model Architecture\n\n```python\nmodel = Sequential([\n    LSTM(units=50, return_sequences=True, input_shape=(X_train.shape[1], 1)),\n    Dropout(0.2),\n    LSTM(units=50, return_sequences=False),\n    Dropout(0.2),\n    Dense(units=25, activation='relu'),\n    Dense(units=1)\n])\n\nmodel.compile(optimizer='adam', loss='mean_squared_error')\nmodel.summary()\n```\n\n**Layer-by-Layer Rationale:**\n\n| Layer | Output Shape | Parameters | Purpose |\n|-------|--------------|------------|---------|\n| LSTM (50, return_seq=True) | (None, 60, 50) | 10,400 | First recurrent layer; passes full sequence |\n| Dropout(0.2) | (None, 60, 50) | 0 | Regularization to prevent overfitting |\n| LSTM (50, return_seq=False) | (None, 50) | 20,200 | Second recurrent layer; outputs final state |\n| Dropout(0.2) | (None, 50) | 0 | Second regularization layer |\n| Dense(25, ReLU) | (None, 25) | 1,275 | Non-linear feature combination |\n| Dense(1) | (None, 1) | 26 | Final regression output |\n\n**Parameter Count Derivation for LSTM Layer:**\n\n$$\n\\text{Params} = 4 \\times [(n_{in} + n_{out}) \\times n_{out} + n_{out}]\n$$\n\n$$\n= 4 \\times [(1 + 50) \\times 50 + 50] = 4 \\times [2550 + 50] = 4 \\times 2600 = 10400\n$$\n\nThis matches the reported parameter count, validating our understanding.\n\n## 3.6 Phase 5: Model Training\n\n```python\nhistory = mod
…
