…
shold for each: (i) NAND, (ii) NOR, (iii) NOR-3 (3-input NOR). Verify each with a truth table. (7 Marks)**\n\n**Model Answer (7 Marks)**:\n\n**(i) NAND Function**: $y = \\neg(x_1 \\land x_2)$\n\n| $x_1$ | $x_2$ | $y$ |\n|:---:|:---:|:---:|\n| 0 | 0 | 1 |\n| 0 | 1 | 1 |\n| 1 | 0 | 1 |\n| 1 | 1 | 0 |\n\n**Design**: Use inhibitory weights $w_1 = -1, w_2 = -1$ and set $\\theta = -1$. Then $u = -x_1 - x_2$, and the neuron fires unless both inputs are 1.\n\n**Parameters**: $w_1 = -1, \\; w_2 = -1, \\; \\theta = -1$.\n\n| Input | $u = -x_1 - x_2$ | $u \\geq -1$? | $y$ |\n|:---:|:---:|:---:|:---:|\n| (0,0) | 0 | Yes | 1 ✓ |\n| (0,1) | -1 | Yes | 1 ✓ |\n| (1,0) | -1 | Yes | 1 ✓ |\n| (1,1) | -2 | No | 0 ✓ |\n\n---\n\n**(ii) NOR Function**: $y = \\neg(x_1 \\lor x_2)$\n\n| $x_1$ | $x_2$ | $y$ |\n|:---:|:---:|:---:|\n| 0 | 0 | 1 |\n| 0 | 1 | 0 |\n| 1 | 0 | 0 |\n| 1 | 1 | 0 |\n\n**Design**: Use inhibitory weights $w_1 = -1, w_2 = -1$ and set $\\theta = 0$. The neuron fires only when $u = 0$, i.e., only when both inputs are 0.\n\n**Parameters**: $w_1 = -1, \\; w_2 = -1, \\; \\theta = 0$.\n\n| Input | $u = -x_1 - x_2$ | $u \\geq 0$? | $y$ |\n|:---:|:---:|:---:|:---:|\n| (0,0) | 0 | Yes | 1 ✓ |\n| (0,1) | -1 | No | 0 ✓ |\n| (1,0) | -1 | No | 0 ✓ |\n| (1,1) | -2 | No | 0 ✓ |\n\n---\n\n**(iii) NOR-3 Function**: $y = \\neg(x_1 \\lor x_2 \\lor x_3)$\n\n**Design**: Extend with three inhibitory weights and threshold $\\theta = 0$.\n\n**Parameters**: $w_1 = -1, \\; w_2 = -1, \\; w_3 = -1, \\; \\theta = 0$.\n\nThe neuron fires only when all three inputs are 0 (i.e., $u = 0$); for any other input combination, $u < 0$ and $y = 0$. The truth table verification fol
…
