…
*Task:** Build a CNN for the CIFAR-10 dataset (32×32 RGB images, 10 classes).\n\n**Architectural Blueprint:**\n\n$$\n\\text{Input} \\rightarrow \\text{Conv2D}(32,3\\times3) \\rightarrow \\text{ReLU} \\rightarrow \\text{MaxPool}(2\\times2) \\rightarrow \\text{Conv2D}(64,3\\times3) \\rightarrow \\text{ReLU} \\rightarrow \\text{MaxPool}(2\\times2) \\rightarrow \\text{Flatten} \\rightarrow \\text{Dense}(128) \\rightarrow \\text{Dense}(10,\\text{softmax})\n$$\n\n**Tensor shape progression:**\n\n| Layer | Output Shape | Parameters |\n|-------|--------------|-----------|\n| `Conv2D(32, 3×3, ReLU)` | (32, 30, 30, 32) | 896 |\n| `MaxPooling2D(2×2)` | (32, 15, 15, 32) | 0 |\n| `Conv2D(64, 3×3, ReLU)` | (32, 13, 13, 64) | 18,496 |\n| `MaxPooling2D(2×2)` | (32, 6, 6, 64) | 0 |\n| `Flatten` | (32, 2304) | 0 |\n| `Dense(128, ReLU)` | (32, 128) | 295,040 |\n| `Dense(10, Softmax)` | (32, 10) | 1,290 |\n| **Total trainable parameters** | — | **315,722** |\n\n**Compilation choice:**\n\n$$\n\\text{optimizer} = \\text{Adam}(\\alpha = 10^{-3}), \\quad \\text{loss} = \\text{CategoricalCrossentropy}, \\quad \\text{metrics} = [\\text{accuracy}]\n$$\n\nThis single decision matrix (shape evolution + parameter count + loss/optimizer selection) is **gold** for KTU board exams — examiners love it because
…
