…
 the corresponding $\\rho$ values trace a **sine wave**. Each $(\\rho, \\theta)$ point on this curve receives one vote.\n\n**Step 5 — Peak Detection:**\n\nAll edge pixels on the same image line produce sine waves that **intersect at a common $(\\rho^*, \\theta^*)$ point** — the line's parameters. This intersection point is the **peak** in the accumulator.\n\n### 3.3 Worked Numerical Example — Harris Response Calculation\n\n**Given:** A $3 \\times 3$ image patch with the following intensity values and precomputed gradients:\n\n| Pixel | $I$ | $I_x$ | $I_y$ |\n|-------|-----|-------|-------|\n| (1,1) | 100 | 10 | 5 |\n| (1,2) | 110 | 12 | 6 |\n| (1,3) | 120 | 14 | 7 |\n| (2,1) | 105 | 11 | 5 |\n| (2,2) | 115 | 13 | 6 |\n| (2,3) | 125 | 15 | 7 |\n| (3,1) | 110 | 12 | 5 |\n| (3,2) | 120 | 14 | 6 |\n| (3,3) | 130 | 16 | 7 |\n\nAssume a **uniform $3 \\times 3$ window** $W(u,v) = 1/9$.\n\n**Step 1 — Compute Quadratic Products:**\n\n| $(u,v)$ | $I_x^2$ | $I_y^2$ | $I_x I_y$ |\n|---------|---------|---------|-----------|\n| (1,1) | 100 | 25 | 50 |\n| (1,2) | 144 | 36 | 72 |\n| (1,3) | 196 | 49 | 98 |\n| (2,1) | 121 | 25 | 55 |\n| (2,2) | 169 | 36 | 78 |\n| (2,3) | 225 | 49 | 105 |\n| (3,1) | 144 | 25 | 60 |\n| (3,2) | 196 | 36 | 84 |\n| (3,3) | 256 | 49 | 112 |\n| **Sum** | **1551** | **330** | **714** |\n\n**Step 2 — Apply Gaussian Weighting ($W = 1/9$):**\n\n$$\nS_{xx} = \\frac{1551}{9} = 172.33\n$$\n\n$$\nS_{yy} = \\frac{330}{9} = 36.67\n$$\n\n$$\nS_{xy} = \\frac{714}{9} = 79.33\n$$\n\n**Step 3 — Compute Determinant and Trace:**\n\n$$\n\\det(M) = S_{xx} S_{yy} - S_{xy}^2 = (172.33)(36.67) - (79.33)^2 = 6318.78 - 6293.25 = 25.53\n$$\n\n$$
…
